models/bigru_score_model.pth (torch, 943973 bytes, 15 tensors)

gru.weight_ih_l0 f4 [384, 3]
-0.54877466 -0.63339096 -0.81394833 0.18524228 0.20486014 0.35884443 -0.013598526 0.26613903
0.0825979 0.11159734 0.09413382 -0.46378964 0.86159575 0.43140498 0.9670025 0.58218205
0.40354568 0.7921462 -0.38395888 0.10905966 -1.810933 -0.31648082 -0.70559067 -0.18941438
-0.6486173 0.4885214 -0.49753028 0.4146558 0.48666853 0.25902516 0.33340418 0.27078298
0.5165023 -0.8062281 0.1113754 0.4276332 -0.68153256 0.15868893 -0.00510513 0.20414191
0.7902223 -0.52227694 -0.87923455 -0.3554447 0.52129257 -0.18444422 -0.63659483 -0.06999218
-0.22028564 -0.03178965 -1.5355937 0.16990899 -0.66059315 0.19796406 0.33370757 0.21404123
0.72867876 -0.22077237 0.4127688 -0.5015489 0.57335097 0.048872657 0.2274563 0.9723017
0.6338031 -0.34643587 -0.33129627 0.35431668 0.65217024 -0.66462135 0.3901725 -1.265347
0.2737426 0.47539437 0.9587732 0.47654817 -0.6883964 0.041474074 0.052204132 0.3960348
0.14340734 -0.0947703 -0.018686783 -0.472428 -1.0838599 0.26925692 0.48469928 -0.34617862
0.19123787 0.95981026 0.1106185 0.3984622 -0.55009246 -0.28721166 0.2377922 -0.41082662
1.1119221 0.08301507 -0.3921848 -1.3423969 -0.0794358 -0.07559761 0.15876795 0.033927508
0.9245635 0.026554838 0.41002572 -0.59568703 0.17472948 -1.2731379 0.03513987 -2.0991051
0.5971125 0.2790559 0.08583462 0.48290253 -0.7137193 0.06717208 0.3245275 0.40155077
-0.7005266 -0.11635235 0.105186716 -0.07346862 -0.035690643 -0.7043919 0.41108543 0.06649778
0.20699206 -0.12561412 0.63398945 -0.89182514 -0.34938678 0.067861296 -0.56510854 0.103276104
0.10347065 -1.0865716 0.8997309 -0.08992319 0.3872733 0.14705174 0.29203466 -1.778837
0.33658576 0.5924959 -0.43200138 0.9419223 0.19550346 -0.2257539 0.076761395 0.57926804
-2.2161 0.18777005 0.47642565 -0.45683432 0.39820346 -0.110628046 0.20614351 -0.10482752
0.18501711 0.36012298 0.44226104 0.13417667 1.0676011 -0.18148509 -0.68689334 0.08349593
0.36943862 -0.32036293 -0.7581828 -0.23326272 0.53603274 -0.10494494 -0.11852351 0.08589266
0.35833564 0.044273693 0.60949355 -0.12561403 -0.14084925 -0.44586006 0.26635766 -0.63899624
0.19928235 0.37434894 0.43066773 0.22420828 0.61101943 -0.19667065 0.033722375 0.48882887
0.36914703 -0.20339493 -0.35719517 0.3102472 -0.6612028 0.4647094 0.25755298 0.54580224
-0.5743856 -0.3751752 0.30191693 0.29921764 0.10718367 -0.277537 0.24975061 -0.2306373
-0.5177648 -0.20417064 0.03622317 0.28617507 -0.2334819 -0.49634665 0.23106073 -0.59090835
-1.0600718 0.0980139 -0.11619957 -0.054243486 0.3488755 0.00056430564 -0.25836378 0.30209267
-1.0583861 0.5105483 0.19948085 -0.37167597 -0.4346411 -0.17940909 0.59327656 -0.10023451
0.03459664 0.05306818 -0.5075907 -0.29294017 -0.011269864 -0.7218215 -0.51848584 0.39719763
0.20965299 0.46977273 -1.2605883 0.4032663 0.3458896 -0.19055006 -0.42058817 -0.8938779
-0.040085718 -0.27271217 0.12859055 0.21348181 -0.22990948 -0.3091734 -1.4904817 0.20509791
00000000: 7f7c 0cbf e925 22bf eb5e 50bf 27b0 3d3e
00000010: dbc6 513e 75ba b73e 5acc 5ebc 6043 883e
00000020: 1629 a93d 258d e43d 3bc9 c03d d675 edbe
00000030: 8a91 5c3f 1de1 dc3e 7a8d 773f e209 153f
00000040: 8a9d ce3e 18ca 4a3f 4296 c4be ac5a df3d
00000050: a7cc e7bf c609 a2be 97a1 34bf d8f5 41be
00000060: c90b 26bf 7a1f fa3e 4abc febe c44d d43e
00000070: 9e2c f93e f29e 843e f4b3 aa3e 11a4 8a3e
00000080: 7f39 043f f764 4ebf c918 e43d bdf2 da3e
00000090: eb78 2ebf 5a7f 223e ef48 a7bb 940a 513e
000000a0: 024c 4a3f f1b3 05bf 8415 61bf d9fc b5be
000000b0: 6e73 053f f2de 3cbe e1f7 22bf 0f58 8fbd
000000c0: 8f92 61be dd35 02bd 568e c4bf 9ffc 2d3e
000000d0: a21c 29bf 17b7 4a3e b8db aa3e a02d 5b3e
000000e0: b18a 3a3f 2712 62be 6f56 d33e 8265 00bf
000000f0: 21c7 123f b22e 483d 4eea 683e c4e8 783f
00000100: ec40 223f 0b60 b1be aa9f a9be ff68 b53e
00000110: a1f4 263f a024 2abf b1c4 c73e e4f6 a1bf
00000120: fd27 8c3e e466 f33e 2972 753f 1ffe f33e
00000130: bf3a 30bf b8e0 293d 00d4 553d 13c5 ca3e
00000140: 60d9 123e ee16 c2bd 0615 99bc 15e2 f1be
00000150: ecbb 8abf 0bdc 893e 812a f83e 533e b1be
00000160: dcd3 433e 20b6 753f f48b e23d 3d03 cc3e
00000170: dcd2 0cbf 680d 93be cc7f 733e de57 d2be
00000180: 7753 8e3f ce03 aa3d 72cc c8be a9d3 abbf
00000190: 3daf a2bd ebd2 9abd 1194 223e 92f7 0a3d
000001a0: 32b0 6c3f 8889 d93c e4ee d13e f27e 18bf
000001b0: 49ec 323e 2ff6 a2bf d3ee 0f3d bd57 06c0
000001c0: 5ddc 183f 6ae0 8e3e 10ca af3d 003f f73e
000001d0: 4fb6 36bf 8491 893d 7828 a63e 1098 cd3e
000001e0: b655 33bf 244a eebd 226c d73d b776 96bd
000001f0: 5a30 12bd 0753 34bf ca79 d23e fd2f 883d
00000200: baf5 533e fda0 00be 224d 223f a74e 64bf
00000210: d3e2 b2be ddfa 8a3d f4aa 10bf 6c82 d33d
00000220: 6ce8 d33d c714 8bbf c454 663f a629 b8bd
00000230: b048 c63e bb94 163e 9185 953e eeb0 e3bf
00000240: f854 ac3e d0ad 173f 492f ddbe d221 713f
00000250: 0f32 483e 082c 67be 1435 9d3d e94a 143f
00000260: 95d4 0dc0 cb46 403e 10ee f33e 30e6 e9be
00000270: 53e1 cb3e f590 e2bd 4917 533e d0af d6bd
00000280: 2075 3d3e 0a62 b83e 0a70 e23e 9c65 093e
00000290: 27a7 883f 3ad7 39be 3ed8 2fbf eaff aa3d
000002a0: 0f27 bd3e 9c06 a4be 4518 42bf 6cdc 6ebe
000002b0: 7139 093f 5fed d6bd 74bc f2bd 7ee8 af3d
000002c0: c577 b73e 5558 353d c507 1c3f f7a0 00be
000002d0: c93a 10be c547 e4be 0860 883e 4295 23bf
000002e0: ac10 4c3e aaaa bf3e 7b80 dc3e db96 653e
000002f0: c56b 1c3f 0864 49be 7920 0a3d c747 fa3e
00000300: d700 bd3e c346 50be 49e2 b6be b9d8 9e3e
00000310: 9644 29bf 64ee ed3e fcdd 833e b2b9 0b3f
00000320: ef0a 13bf f716 c0be db94 9a3e 0e33 993e
00000330: 1d83 db3d 5419 8ebe a0be 7f3e 2f2c 6cbe
00000340: 3c8c 04bf 1c12 51be bf5e 143d 8a85 923e
00000350: e115 6fbe 2621 febe 2f9b 6c3e c545 17bf
00000360: 6fb0 87bf 83bb c83d 0afa edbd 6b2e 5ebd
00000370: cf9f b23e e9ed 133a 4248 84be e4ab 9a3e
00000380: 3279 87bf 4bb3 023f b544 4c3e 504c bebe
00000390: 4789 debe 04b7 37be f9e0 173f c047 cdbd
000003a0: 35b5 0d3d 055e 593d 77f1 01bf 41fc 95be
000003b0: 3ca5 38bc 4bc9 38bf 7dbb 04bf 7d5d cb3e
000003c0: 46af 563e 0d86 f03e f55a a1bf ec78 ce3e
000003d0: 7118 b13e 8e1f 43be 5557 d7be 2fd5 64bf
000003e0: ec30 24bd eea0 8bbe 3ead 033e fa9a 5a3e
000003f0: 646d 6bbe fa4b 9ebe 1bc8 bebf 3005 523e

gru.weight_hh_l0 f4 [384, 128]
0.66585904 0.7656552 -0.51417303 -0.4311116 0.32356647 0.6913596 0.7581805 -0.3614775
0.5254876 0.54222435 -1.0423274 0.53073585 0.78523844 -0.247651 0.4659171 -0.87956005
0.48868844 0.6402206 0.8183936 -0.6024016 -0.05758175 0.9012473 -0.6131021 1.0339878
0.81104803 0.53293896 -0.023796534 0.20063478 -0.3873897 -0.81927806 -0.64511657 -0.14785044
-0.51019555 0.10420975 -0.3148063 -0.6117252 0.72168624 -0.8660906 -0.38240474 -0.19862466
-0.5338699 -0.7005728 -0.37482628 -0.16188087 -0.86805916 -0.6398741 -0.61040765 0.34523427
-0.087420024 -0.14415997 0.21935537 0.91162467 0.5382436 0.448812 -0.0006426301 0.5320617
-0.5301804 1.0646687 0.5594379 0.7513802 -0.8938265 0.07398818 0.24087144 0.35941356
1.1525252 0.50145566 0.42227384 -0.06995882 -0.29405788 -0.2217618 -0.32696405 -0.21146816
0.42741126 -0.46613002 -0.12522705 -0.058324415 0.43985996 0.12522316 -0.29424435 0.6670207
-0.4348427 -0.09716922 0.7301227 -0.90872216 -0.44165677 -0.34977284 0.114671536 0.38269523
0.5998247 -0.4522782 -0.184192 0.70132965 0.6539876 0.43522608 0.39245278 -0.20477138
0.99880284 0.26523113 -1.0873078 0.48414436 0.48751515 -0.5926415 -0.12410928 0.9191762
0.06451668 -0.45786694 -0.4621132 -0.6322358 0.29463357 0.24109001 -0.60136974 0.46260512
-0.38753417 0.1696421 -0.50465834 0.8281386 -0.8536439 0.53745276 0.58429277 -0.30147406
-0.21290527 -0.19973288 0.6394989 0.22826925 0.34074438 1.0832685 -0.41340116 0.7278535
-0.22756264 -0.2591293 0.14840451 0.34856686 -0.38837075 0.2869853 0.11636267 -0.3160954
-0.06679447 0.52628803 -0.1513782 -0.30584297 -0.035340644 -0.17934452 0.083734795 0.36292347
0.24146265 -0.23856835 0.1481028 0.39806572 -0.16958106 0.121233 0.17669673 -0.26723847
-0.10051931 -0.0900908 0.19319361 -0.48117456 -0.20883794 -0.091835104 0.2109808 0.2398516
0.24942566 -0.09393102 -0.0661274 -0.20914117 0.0742038 0.1539664 0.20780315 -0.10048272
0.5021938 0.10220469 -0.02114775 0.15276457 0.68417704 -0.40344405 0.34050587 -0.6095907
-0.35068336 -0.2104125 -0.112889215 -0.21930602 -0.39515772 0.10619338 -0.22374004 -0.27582386
0.4119777 0.11938009 0.16317612 0.11324945 -0.2432839 -0.025342219 -0.077206925 0.060072824
-0.27393308 -0.45836738 0.29988614 -0.45752373 0.021667346 -0.33880323 0.1510905 0.55667317
-0.11835522 -0.39241248 0.14339928 -0.026542543 -0.0699972 -0.011897181 -0.17124343 -0.33652443
-0.11082868 0.06852385 -0.3666481 0.25237915 -0.6009076 -0.25676838 -0.18304399 -0.49891016
-0.39801008 0.5375288 0.3413215 0.05026483 0.097532116 -0.16332826 0.07487307 -0.10755013
-0.28542408 0.08865727 -0.18773128 -0.2302389 0.22709158 0.05865529 -0.18444861 -0.33743185
0.32374 0.38192207 0.6010562 0.034764647 -0.023774471 0.038807105 0.028276732 0.18037081
-0.34224477 -0.39824712 0.10166575 -0.6374352 0.23354971 -0.54170114 -0.3319373 0.42144307
-0.43826002 0.15562966 -0.31101105 -0.4250166 -0.39250737 -0.08129214 -0.4681179 -0.32924435
00000000: bd75 2a3f fb01 443f d8a0 03bf a9ba dcbe
00000010: 81aa a53e f1fc 303f 1e18 423f 9413 b9be
00000020: 5b86 063f 37cf 0a3f fc6a 85bf 4ede 073f
00000030: 6305 493f 3998 7dbe b08c ee3e d92a 61bf
00000040: 5f35 fa3e 7fe5 233f 3e82 513f fe36 1abf
00000050: d7da 6bbd 25b8 663f 42f4 1cbf b659 843f
00000060: d8a0 4f3f b06e 083f f3f0 c2bc 3473 4d3e
00000070: f157 c6be 35bc 51bf 5c26 25bf 1b66 17be
00000080: 2d9c 02bf ec6b d53d 4b2e a1be 069a 1cbf
00000090: 6ec0 383f 1db8 5dbf 8eca c3be 4364 4bbe
000000a0: b3ab 08bf bd58 33bf 3be9 bfbe 19c4 25be
000000b0: 2039 5ebf cace 23bf ad43 1cbf 8cc2 b03e
000000c0: 4509 b3bd ac9e 13be b29e 603e 3c60 693f
000000d0: 55ca 093f b0ca e53e 2d76 28ba 3235 083f
000000e0: e7b9 07bf 1047 883f 5237 0f3f 745a 403f
000000f0: d0d1 64bf 1d87 973d 01a7 763e 0e05 b83e
00000100: f285 933f 665f 003f 4734 d83e 9246 8fbd
00000110: c18e 96be 8615 63be d567 a7be 1c8b 58be
00000120: a6d5 da3e 98a8 eebe 853b 00be 95e5 6ebd
00000130: 5335 e13e 803a 003e 32a7 96be dec1 2a3f
00000140: b4a3 debe a800 c7bd 52e9 3a3f 04a2 68bf
00000150: d620 e2be 6d15 b3be e9d8 ea3d a1f0 c33e
00000160: 1d8e 193f 0291 e7be d49c 3cbe 578a 333f
00000170: bb6b 273f f4d5 de3e 92ef c83e 97af 51be
00000180: 8bb1 7f3f 60cc 873e e72c 8bbf c5e1 f73e
00000190: 969b f93e 5ab7 17bf 022d febd 224f 6b3f
000001a0: 5221 843d 896d eabe 1a9a ecbe 35da 21bf
000001b0: 36da 963e 4de0 763e 5ef3 19bf 94da ec3e
000001c0: e16a c6be a9b6 2d3e 4a31 01bf e400 543f
000001d0: 6888 5abf 8196 093f 3694 153f cf5a 9abe
000001e0: d703 5abe c786 4cbe 33b6 233f 6abf 693e
000001f0: 0c76 ae3e 8ba8 8a3f 51a9 d3be 9b54 3a3f
00000200: 2e06 69be 98ac 84be 5af7 173e 5b77 b23e
00000210: 88d8 c6be bdef 923e 8d4f ee3d 42d7 a1be
00000220: 8acb 88bd d0ba 063f e302 1bbe 7397 9cbe
00000230: 5ac1 10bd 17a6 37be 267d ab3d 1bd1 b93e
00000240: fc41 773e 434b 74be 43a8 173e 45cf cb3e
00000250: a8a6 2dbe 0249 f83d fdef 343e 7bd3 88be
00000260: 11dd cdbd 8681 b8bd 8cd4 453e 835c f6be
00000270: 9dd9 55be 0b14 bcbd 5a0b 583e a89b 753e
00000280: 7169 7f3e e85e c0bd cd6d 87bd 1a29 56be
00000290: 29f8 973d 5ea9 1d3e 59ca 543e e2c9 cdbd
000002a0: c68f 003f b150 d13d 0c3e adbc 516e 1c3e
000002b0: 3a26 2f3f 3890 cebe c956 ae3e 230e 1cbf
000002c0: c58c b3be 6076 57be 7632 e7bd c291 60be
000002d0: 1d52 cabe ea7b d93d 1c1c 65be c938 8dbe
000002e0: beee d23e 8c7d f43d a417 273e 54ef e73d
000002f0: 6a1f 79be 7c9a cfbc aa1e 9ebd ec0e 763d
00000300: f540 8cbe 21af eabe ad8a 993e 8d40 eabe
00000310: b87f b13c 9e77 adbe 78b7 1a3e 2282 0e3f
00000320: 3964 f2bd 4aea c8be 43d7 123e bf6f d9bc
00000330: b15a 8fbd 65ec 42bc 705a 2fbe ee4c acbe
00000340: 26fa e2bd 3b56 8c3d 4db9 bbbe d737 813e
00000350: 15d5 19bf 2577 83be e26f 3bbe 2771 ffbe
00000360: fac7 cbbe 7d9b 093f b1c1 ae3e 7fe2 4d3d
00000370: ebbe c73d 863f 27be 0d57 993d 3e43 dcbd
00000380: 1b23 92be f191 b53d a13c 40be bfc3 6bbe
00000390: b28a 683e 8840 703d 19e0 3cbe dec3 acbe
000003a0: 40c1 a53e 4a8b c33e d2de 193f 6065 0e3d
000003b0: aec2 c2bc 33f4 1e3d 9ba4 e73c 20b3 383e
000003c0: b53a afbe 0ce7 cbbe 2236 d03d f42e 23bf
000003d0: a827 6f3e edac 0abf b0f3 a9be 63c7 d73e
000003e0: 9e63 e0be 625d 1f3e d73c 9fbe c79b d9be
000003f0: baf6 c8be 7e7c a6bd 26ad efbe b792 a8be

gru.bias_ih_l0 f4 [384]
-0.18928137 -0.16898873 -0.1583042 -0.2222267 -0.1350168 -0.22518268 -0.33756956 -0.08898062
-0.298396 -0.07767404 -0.057693966 -0.010212911 -0.24226837 -0.25928822 -0.18174884 -0.29594806
-0.25383496 -0.2346298 -0.16800551 -0.12974052 -0.13416243 -0.21093045 -0.21396944 -0.18029703
-0.31053188 -0.35303065 -0.13737372 -0.25436223 -0.18922772 -0.13431256 -0.16687952 -0.14374742
-0.16878127 -0.28787434 -0.25286457 -0.1974378 -0.15773953 -0.3869678 -0.10406603 -0.17678793
-0.24004725 -0.2484611 -0.058514953 -0.24277867 -0.17049444 -0.057107158 -0.0008746088 -0.2823334
-0.21067305 -0.09194602 -0.1778415 -0.20298395 -0.1178126 -0.100067824 -0.016433371 -0.18264668
-0.19021422 -0.123572335 -0.24084537 -0.26136562 0.16316703 -0.09859098 -0.060885556 -0.060745724
-0.45901045 -0.26123735 -0.12819982 -0.31099147 -0.24078059 -0.29452124 -0.2544727 -0.30135697
-0.3098753 -0.12723239 -0.21413976 -0.14247331 -0.09703429 -0.15510246 0.093151405 -0.30963862
-0.19165778 -0.18222229 -0.2559515 -0.21999323 -0.3038667 0.00060589577 -0.3385266 -0.19636846
-0.320748 -0.15493031 -0.19012643 -0.15331061 -0.24584462 -0.0780143 -0.31672084 -0.09809369
-0.40031463 -0.040954594 -0.12600148 -0.19148092 -0.2525585 -0.34259683 -0.28914437 -0.14495654
-0.19979142 -0.24250159 -0.17302777 -0.17237371 -0.12921011 -0.1782474 -0.21392226 -0.14319639
-0.14955734 -0.40058494 -0.23047166 -0.17687507 -0.20826009 -0.3201702 -0.25866184 -0.21302947
-0.15212856 -0.24827886 -0.16779046 -0.25822437 -0.18393238 -0.24473195 -0.22849502 -0.15072675
1.4208742 -0.2453512 0.3105656 0.15473494 0.5471769 -0.4720116 0.29354125 0.23187718
-0.30808103 -0.27791876 -0.10098438 0.48094898 0.5102962 0.11583967 -0.13108939 0.7851995
0.9138473 0.9837397 -0.21001942 0.26036552 -0.45483994 0.15535092 -0.12217742 0.5588993
-0.44273895 0.014150128 0.98009634 0.8678269 0.16384155 -0.0075279637 0.43615392 -0.25672483
-0.023004338 0.1748097 -0.41407508 0.62739867 -0.11970606 0.5760474 0.072325245 -0.59935004
0.75365335 0.42899913 -0.048491232 0.0048419693 -0.037974678 0.4873905 0.5151908 0.14424877
-0.16031212 0.39278185 -0.32667547 -0.44116604 0.98027855 -0.35465127 0.20942597 0.5408228
0.8381726 0.14436139 1.538843 -0.47138348 1.2972791 -0.3672829 -0.5165183 -0.4327395
0.5386566 0.64682955 -0.14487338 0.30769685 -0.2965265 0.4682748 -0.5058146 0.40603465
0.2814718 0.264204 -0.4051834 0.42666483 0.4214105 0.20507973 0.808936 1.2509183
-0.31355357 0.91551685 0.75613624 -0.13071467 -0.43178394 -0.3484795 0.026980298 0.039017234
0.57275593 0.58485997 0.11541446 -0.111807875 0.6340009 0.6948789 0.9030936 -0.38553128
0.671862 -0.24680215 -0.035970207 0.46722582 0.9946514 0.31029442 0.23212062 0.2690423
-0.07970921 1.0847591 -0.068287805 0.42289895 -0.22924973 0.050350524 0.7607453 -0.40086547
0.28963906 0.38842505 0.7332363 0.6637887 -0.07621767 0.6873634 0.94552475 -0.23835893
0.3619927 0.67242473 0.94100887 0.7194215 -0.10015243 0.55720544 -0.48183945 0.6508278
00000000: fad2 41be 620b 2dbe 7f1a 22be 658f 63be
00000010: d841 0abe 4a96 66be ebd5 acbe 793b b6bd
00000020: 5cc7 98be 9113 9fbd 8250 6cbd 0e54 27bc
00000030: 3315 78be 6dc1 84be 5e1c 3abe 8186 97be
00000040: a8f6 81be cb42 70be a309 2cbe b3da 04be
00000050: e061 09be 27fe 57be ce1a 5bbe c99f 38be
00000060: 09fe 9ebe 6fc0 b4be b2ab 0cbe c43b 82be
00000070: e9c4 41be 3b89 09be 77e2 2abe 8632 13be
00000080: ffd4 2cbe 4464 93be 7777 81be 222d 4abe
00000090: 7986 21be a520 c6be 9220 d5bd e507 35be
000000a0: f2ce 75be 966c 7ebe 60ad 6fbd f99a 78be
000000b0: 1896 2ebe 32e9 69bd 0146 65ba 018e 90be
000000c0: adba 57be 324e bcbd 151c 36be 06db 4fbe
000000d0: bc47 f1bd 5cf0 ccbd 479f 86bc bb07 3bbe
000000e0: 84c7 42be 7e13 fdbd 2ba0 76be b7d1 85be
000000f0: 4215 273e 11ea c9bd 2263 79bd 82d0 78bd
00000100: 6b03 ebbe e7c0 85be d046 03be 463a 9fbe
00000110: 308f 76be 7dcb 96be 3f4a 82be 764b 9abe
00000120: faa7 9ebe 3549 02be 7447 5bbe 86e4 11be
00000130: eab9 c6bd 2ed3 1ebe 2ac6 be3d f488 9ebe
00000140: f041 44be 7b98 3abe 130c 83be e845 61be
00000150: 6b94 9bbe fad4 1e3a 5c53 adbe d014 49be
00000160: 1539 a4be 0da6 1ebe 81b0 42be 75fd 1cbe
00000170: b1be 7bbe f6c5 9fbd 3c29 a2be 58e5 c8bd
00000180: 0af6 ccbe 01c0 27bd 8806 01be 9313 44be
00000190: 594f 81be da68 afbe bb0a 94be 7d6f 14be
000001a0: 1f96 4cbe 5652 78be 312e 31be bc82 30be
000001b0: a84f 04be 7d86 36be 700e 5bbe 13a2 12be
000001c0: 8f25 19be 7819 cdbe c300 6cbe bd1e 35be
000001d0: 2242 55be 59ed a3be 536f 84be 6624 5abe
000001e0: 97c7 1bbe d03c 7ebe 43d1 2bbe fc35 84be
000001f0: c558 3cbe 039b 7abe 99fa 69be 1d58 1abe
00000200: 35df b53f 583d 7bbe 7402 9f3e d672 1e3e
00000210: c913 0c3f 81ab f1be 0a4b 963e 3671 6d3e
00000220: ccbc 9dbe 5e4b 8ebe e6d0 cebd f23e f63e
00000230: c6a2 023f 593d ed3d 4c3c 06be d602 493f
00000240: e6f1 693f 5dd6 7b3f 550f 57be a14e 853e
00000250: c8e0 e8be 5014 1f3e 2838 fabd 0614 0f3f
00000260: aeae e2be f0d5 673c 98e7 7a3f e729 5e3f
00000270: 14c6 273e 23ad f6bb 914f df3e 7071 83be
00000280: 9873 bcbc 5001 333e a601 d4be 339d 203f
00000290: 7328 f5bd d877 133f 421f 943d 016f 19bf
000002a0: 6def 403f c6a5 db3e be9e 46bd 62a9 9e3b
000002b0: 568b 1bbd 3f8b f93e 8be3 033f f3b5 133e
000002c0: dc28 24be b41a c93e 0242 a7be 84e0 e1be
000002d0: 89f3 7a3f da94 b5be c373 563e 5d73 0a3f
000002e0: 7b92 563f 79d3 133e cff8 c43f 2d59 f1be
000002f0: 3e0d a63f 810c bcbe 8b3a 04bf 0890 ddbe
00000300: 66e5 093f 9f96 253f b059 14be 718a 9d3e
00000310: 52d2 97be b7c1 ef3e 117d 01bf c6e3 cf3e
00000320: 121d 903e bf45 873e 3374 cfbe d073 da3e
00000330: 1ec3 d73e 6c00 523e 6e16 4f3f 171e a03f
00000340: 188a a0be 505f 6a3f 2592 413f 11da 05be
00000350: c912 ddbe e86b b2be c905 dd3c 89d0 1f3d
00000360: 22a0 123f 62b9 153f 6b5e ec3d 87fb e4bd
00000370: e24d 223f 95e3 313f 2431 673f 5b64 c5be
00000380: 26ff 2b3f b4b9 7cbe 7f55 13bd 3938 ef3e
00000390: 79a1 7e3f e9de 9e3e 07b1 6d3e eabf 893e
000003a0: 953e a3bd 63d9 8a3f 7ada 8bbd 3686 d83e
000003b0: 71c0 6abe 5a3c 4e3d 34c0 423f 3d3e cdbe
000003c0: 924b 943e a6df c63e 60b5 3b3f 0eee 293f
000003d0: 0318 9cbd 0cf7 2f3f e90d 723f 5d14 74be
000003e0: 1b57 b93e 0724 2c3f f5e5 703f 022c 383f
000003f0: b81c cdbd 04a5 0e3f a9b3 f6be a79c 263f

gru.bias_hh_l0 f4 [384]
-0.13414268 -0.15956035 -0.2932224 -0.21281356 -0.18753019 -0.18332481 -0.27885655 -0.051419362
-0.2946721 -0.18792208 -0.14913118 -0.03797431 -0.22118029 -0.32597062 -0.21051084 -0.2709496
-0.14652325 -0.24263753 -0.045317274 -0.11955158 -0.22602122 -0.3586759 -0.14863923 -0.18667792
-0.20627916 -0.33665213 -0.14411472 -0.33162883 -0.1353702 -0.12845315 -0.19691396 -0.12645903
-0.25366133 -0.346106 -0.22814979 -0.15169553 -0.09637441 -0.34181097 -0.12512515 -0.16485839
-0.28105754 -0.18601236 -0.17330305 -0.15901825 -0.21927996 -0.06425333 -0.056848884 -0.18727916
-0.25978395 -0.093603946 -0.3153726 -0.2600744 -0.2161141 -0.1010001 -0.04103964 -0.2933349
-0.3265973 -0.19556615 -0.23324 -0.3280775 0.049128074 -0.11543676 -0.09273033 -0.080128275
-0.48126563 -0.3669313 -0.16971108 -0.3186447 -0.12713698 -0.33337405 -0.1675398 -0.27530143
-0.21203841 -0.13662142 -0.1991408 -0.11608846 -0.1705474 -0.07222559 0.032137234 -0.28871086
-0.09490888 -0.28099158 -0.1949336 -0.11941557 -0.20964217 -0.1331306 -0.22926755 -0.09462815
-0.27550483 -0.26275435 -0.24044207 -0.11844097 -0.31860894 -0.07751735 -0.28674307 -0.17953026
-0.37058017 -0.078998156 -0.23507564 -0.07630679 -0.2253778 -0.31509593 -0.22628096 -0.25227538
-0.2593785 -0.21794477 -0.25442 -0.12591933 -0.165239 -0.2012993 -0.06370281 -0.17086118
-0.20226984 -0.42583326 -0.28731093 -0.19993478 -0.1511685 -0.2510754 -0.37775427 -0.20281844
-0.23710325 -0.2493615 -0.038719352 -0.28393227 -0.22935762 -0.34037393 -0.2760593 -0.12786941
1.3579171 -0.25331777 0.29155836 0.13411799 0.58078307 -0.49062738 0.23763628 0.28848186
-0.28992113 -0.29415935 -0.07573861 0.41435727 0.46092454 -0.0348975 -0.07329614 0.7554966
1.0065918 0.98622715 -0.24915244 0.26619843 -0.49586254 0.24072225 -0.03223867 0.4626853
-0.39989126 0.019500379 1.0380344 0.83590543 0.091078825 -0.12044766 0.4382182 -0.34726623
-0.052840155 0.16423872 -0.5167163 0.51416 -0.17471364 0.45587796 0.07055649 -0.49357468
0.70501125 0.40314412 -0.026373945 0.08346497 -0.029611768 0.619643 0.45501307 0.20852327
-0.15980205 0.29850516 -0.42879012 -0.387842 1.0984311 -0.26344216 0.28970748 0.524303
0.89103806 0.11534566 1.6158719 -0.3394531 1.3476216 -0.34843418 -0.51944685 -0.4139269
0.64570373 0.79254156 -0.1466315 0.26515788 -0.18550405 0.47157717 -0.42434782 0.33779988
0.29590988 0.28105706 -0.3218487 0.33722338 0.47780177 0.318879 0.76943195 1.2939379
-0.28872207 0.8761678 0.71850526 -0.17543453 -0.4297782 -0.42845947 0.10431188 0.027750706
0.68047 0.6854371 0.13519664 -0.098144986 0.73805904 0.67485356 0.8417927 -0.4405429
0.54062486 -0.3116483 -0.034732193 0.49554622 1.0478759 0.31945473 0.20875919 0.15211897
-0.110963054 1.2091912 -0.04526807 0.41979834 -0.16527212 0.1348377 0.65849215 -0.2871097
0.3505713 0.43007395 0.64913464 0.61250925 -0.09016417 0.70930874 0.86446124 -0.15425359
0.33017293 0.7357101 0.902571 0.73609424 -0.09703371 0.6204466 -0.43699494 0.6756308
00000000: b35c 09be ca63 23be 3f21 96be cceb 59be
00000010: ea07 40be 80b9 3bbe 49c6 8ebe 1c9d 52bd
00000020: 43df 96be a56e 40be d8b5 18be f38a 1bbd
00000030: 167d 62be 9fe5 a6be 2790 57be e8b9 8abe
00000040: 310a 16be f975 78be 9b9e 39bd 75d7 f4bd
00000050: 1b72 67be 5ea4 b7be e234 18be 7f28 3fbe
00000060: d83a 53be ab5d acbe cf92 13be 41cb a9be
00000070: 7c9e 0abe 3989 03be d0a3 49be 7a7e 01be
00000080: e6df 81be ce34 b1be 19a0 69be 1356 1bbe
00000090: f25f c5bd d901 afbe cf20 00be a3d0 28be
000000a0: c6e6 8fbe 067a 3ebe 5b76 31be aed5 22be
000000b0: ed8a 60be 4097 83bd 60da 68bd 1cc6 3fbe
000000c0: 6702 85be 6db3 bfbd 8478 a1be 7928 85be
000000d0: 044d 5dbe 24d9 cebd 2e19 28bd fe2f 96be
000000e0: c337 a7be 7e42 48be 77d6 6ebe c6f9 a7be
000000f0: 853a 493d 1c6a ecbd 66e9 bdbd 4b1a a4bd
00000100: 7368 f6be 6bde bbbe bec8 2dbe 6625 a3be
00000110: 3230 02be 01b0 aabe 8e8f 2bbe 4ff4 8cbe
00000120: 9920 59be 7ce6 0bbe 91eb 4bbe c9bf edbd
00000130: faa3 2ebe 03eb 93bd 55a2 033d e9d1 93be
00000140: 965f c2bd 21de 8fbe ac9c 47be 2690 f4bd
00000150: 70ac 56be 6353 08be 1dc5 6abe 67cc c1bd
00000160: f80e 8dbe bd87 86be 7236 76be 2e91 f2bd
00000170: b620 a3be 6bc1 9ebd fdcf 92be c8d6 37be
00000180: afbc bdbe c9c9 a1bd abb7 70be bc46 9cbd
00000190: 70c9 66be 4154 a1be 32b6 67be 3d2a 81be
000001a0: 42cd 84be ea2c 5fbe 5743 82be fff0 00be
000001b0: 6a34 29be 6721 4ebe 9e76 82bd 3cf6 2ebe
000001c0: d31f 4fbe d106 dabe 6b1a 93be b4bb 4cbe
000001d0: eacb 1abe f48c 80be 0269 c1be a3af 4fbe
000001e0: 32cb 72be 9f58 7fbe 2f98 1ebd 925f 91be
000001f0: b9dc 6abe 7e45 aebe a557 8dbe 33f0 02be
00000200: 3ad0 ad3f deb2 81be 2347 953e 3a56 093e
00000210: 33ae 143f 8333 fbbe ed56 733e e5b3 933e
00000220: 8b70 94be 0e9c 96be d81c 9bbd a326 d43e
00000230: 4dfe eb3e aef0 0ebd 491c 96bd 3a68 413f
00000240: 00d8 803f 6279 7c3f d121 7fbe 294b 883e
00000250: b2e1 fdbe e57f 763e b20c 04bd 16e5 ec3e
00000260: 8cbe ccbe 42bf 9f3c 50de 843f e6fd 553f
00000270: 8987 ba3d 43ad f6bd 235e e03e e1cc b1be
00000280: eb6e 58bd 322e 283e 8547 04bf fd9f 033f
00000290: 22e8 32be d668 e93e ec7f 903d d2b5 fcbe
000002a0: 9e7b 343f e868 ce3e 2c0e d8bc afef aa3d
000002b0: 6194 f2bc eca0 1e3f 79f7 e83e 2087 553e
000002c0: 26a3 23be abd5 983e 618a dbbe 3a93 c6be
000002d0: 6499 8c3f e4e1 86be 8a54 943e b938 063f
000002e0: 121b 643f 583a ec3d e4d4 ce3f cccc adbe
000002f0: dd7e ac3f f765 b2be 78fa 04bf 3aee d3be
00000300: d74c 253f 01e4 4a3f 9126 16be c6c2 873e
00000310: c6f4 3dbe 9072 f13e 1e44 d9be 1bf4 ac3e
00000320: 8081 973e b6e6 8f3e 5ac9 a4be 8ba8 ac3e
00000330: 6fa2 f43e 1c44 a33e 7ef9 443f c29f a53f
00000340: 61d3 93be 884c 603f f6ef 373f 1ca5 33be
00000350: e30b dcbe 0a5f dbbe 78a1 d53d 7355 e33c
00000360: 4833 2e3f ce78 2f3f fd70 0a3e 3d00 c9bd
00000370: 70f1 3c3f 34c3 2c3f ba7f 573f d78e e1be
00000380: 6466 0a3f 5e90 9fbe 5843 0ebd 3cb8 fd3e
00000390: cc20 863f 928f a33e f8c4 553e 13c5 1b3e
000003a0: 9940 e3bd c7c6 9a3f 036b 39bd cfef d63e
000003b0: 183d 29be e512 0a3e f192 283f 0b00 93be
000003c0: 157e b33e a732 dc3e b02d 263f 68cd 1c3f
000003d0: fea7 b8bd 4295 353f 554d 5d3f a7f4 1dbe
000003e0: 6d0c a93e 7f57 3c3f e50e 673f ac70 3c3f
000003f0: 9cb9 c6bd 97d5 1e3f cdbd dfbe 24f6 2c3f

gru.weight_ih_l0_reverse f4 [384, 3]
-0.19831435 0.28692898 -0.5190607 0.2393605 0.5140467 -1.1216614 0.09850132 0.12361925
-0.03483615 -0.49979004 0.24663378 -0.30504578 -0.110376015 -0.44944322 -0.35992044 0.6289313
-0.32996675 -0.59403795 0.3756705 -0.21777214 -0.43250692 0.22835234 0.06012265 0.1200084
0.10118184 -0.2494315 0.14147858 -0.085435785 0.06820854 -0.30684206 -0.0843882 0.3078199
0.012797705 -0.29068175 0.10232086 -0.42521778 0.016409144 0.13412553 -0.103732914 0.3741999
-0.29308462 0.7185705 -0.20006615 -0.1272028 -0.053416368 0.6721626 -0.5597213 0.4542222
0.13711013 -0.50096023 -0.60540986 0.06189109 -0.26134676 -0.08730216 0.04093402 0.24887483
-0.36637124 0.024358321 0.5706014 -0.51076055 0.9229422 -0.66348064 0.16750547 -0.3534239
-0.5990489 0.43472934 -0.22142453 -0.36455327 -0.28423417 -0.51266456 -0.6455622 0.5272039
-0.38232923 -0.27342865 0.22430882 0.4175034 -0.45756808 -0.7011532 0.16407986 -0.12557098
0.4330926 -0.23876083 0.1227024 -0.13405977 -0.19245458 0.41683406 0.05518862 0.07114898
0.20262603 -0.22343576 -0.09869747 -0.4298112 0.9423568 0.069553964 -0.40171677 0.76495653
0.22569314 -0.28617632 0.30540693 -0.43919808 -0.08291792 -0.21174832 -0.29649058 -0.29621905
-0.5366784 1.1369808 -0.59926015 -0.20934197 -0.2795949 -0.4541949 -0.36057892 0.7182413
-0.44132322 0.92249507 -0.2087051 -0.21190386 -0.1971427 0.18549879 -0.8888211 -0.7243688
0.018550904 -1.3039173 -0.5755111 1.2299808 -0.24423969 0.107482046 -0.36027357 -0.44469258
-0.09503506 0.15954559 0.7208717 -0.33805254 0.322928 -0.15545866 0.41538644 -0.12804246
-0.8016096 0.12966242 -0.20980662 -0.009529247 0.06795971 -0.1669062 -0.025497407 -0.52240306
-0.17379433 -0.18840282 -0.09030103 0.22863698 0.48564076 0.07166554 1.4135567 -0.11578955
-0.6312259 -0.13972612 -0.124724686 0.26421663 -0.1637669 -0.02658012 -0.5435835 -0.3890072
-0.034412485 -0.31542158 0.22369055 -0.044486612 -0.91323787 0.029318554 -0.1399561 -0.065597616
-0.3664806 -0.36853194 0.22188146 -0.68349546 -0.20300192 0.0482052 0.33309856 -0.8067072
0.40570486 -0.005906944 -0.47938496 0.34431216 -0.054017216 0.29854473 -0.43948922 -0.48296794
-0.29302374 0.0073088496 -1.5378683 -0.020818833 -0.9179253 -0.03729631 -0.47980052 -0.34165493
-0.096861325 0.15058468 0.3629041 -0.8325804 -0.03782817 0.2144427 -0.30775866 0.3186639
-0.5524751 -0.9834389 -0.55013055 -0.120315075 -0.336561 0.44354156 0.082028724 -0.37063786
-0.28486073 0.3967482 0.7802467 0.027425645 -0.79187065 0.19603783 -0.3014173 0.37089834
0.28164276 -0.22416893 0.73037916 -0.05872854 0.14167511 -0.012832572 -0.09200994 -1.4443362
0.26994005 0.13917786 -0.080749646 -0.13726225 -0.9613113 0.3153325 0.004607513 0.35384265
-0.5808347 0.39618814 0.40476245 0.4093721 -0.28010523 -0.27715826 -0.0056168176 -0.21238708
-0.21738686 -2.023591 0.463236 0.7287421 0.041778173 -0.8064936 0.17611092 -0.15293728
-0.1645258 0.1840259 0.01409992 -0.92204946 -1.387671 0.055935517 -0.7039869 -0.016431198
00000000: eb12 4bbe 5be8 923e 29e1 04bf eb1a 753e
00000010: 9198 033f 9a92 8fbf 0fbb c93d 172c fd3d
00000020: 5ab0 0ebd 7be4 ffbe 918d 7c3e f62e 9cbe
00000030: d20c e2bd 6c1d e6be 7e47 b8be a401 213f
00000040: 67f1 a8be df12 18bf e257 c03e a9ff 5ebe
00000050: 8c71 ddbe 32d5 693e 2b43 763d f7c6 f53d
00000060: 6d38 cf3d f96a 7fbe c3df 103e f5f8 aebd
00000070: ebb0 8b3d 671a 9dbe b8d3 acbd 929a 9d3e
00000080: 77ad 513c 3dd4 94be 998d d13d 25b6 d9be
00000090: 786c 863c 3458 093e ec71 d4bd 2197 bf3e
000000a0: 300f 96be 3cf4 373f 24de 4cbe 7341 02be
000000b0: 1fcb 5abd d912 2c3f e549 0fbf d08f e83e
000000c0: 9966 0c3e ee3e 00bf 24fc 1abf 8381 7d3d
000000d0: 3ecf 85be 7acb b2bd 6eaa 273d 0bd9 7e3e
000000e0: 0395 bbbe 1a8b c73c ef12 123f 34c1 02bf
000000f0: f145 6c3f ded9 29bf 8e86 2b3e faf3 b4be
00000100: 455b 19bf d894 de3e 1dbd 62be baa6 babe
00000110: 2487 91be fc3d 03bf 9043 25bf d6f6 063f
00000120: a8c0 c3be d7fe 8bbe 36b1 653e 01c3 d53e
00000130: 5d46 eabe c77e 33bf 8d04 283e ae95 00be
00000140: 50be dd3e b87d 74be 654b fb3d f746 09be
00000150: d012 45be 466b d53e 760d 623d 8eb6 913d
00000160: 337d 4f3e 58cc 64be e621 cabd 3710 dcbe
00000170: 4c3e 713f 4f72 8e3d d2ad cdbe 31d4 433f
00000180: 1a1c 673e b485 92be 4c5e 9c3e 92de e0be
00000190: dfd0 a9bd 8dd4 58be 9dcd 97be 06aa 97be
000001a0: c163 09bf 9688 913f 1d69 19bf be5d 56be
000001b0: 1027 8fbe 3c8c e8be cd9d b8be a9de 373f
000001c0: 1ef5 e1be a328 6c3f cab6 55be 53fd 58be
000001d0: c7df 49be 65f3 3d3e c889 63bf 3c70 39bf
000001e0: 11f8 973c c3e6 a6bf b254 13bf 0370 9d3f
000001f0: f819 7abe 8c1f dc3d c775 b8be bfae e3be
00000200: bea1 c2bd eb5f 233e 0c8b 383f 3915 adbe
00000210: d256 a53e 8e30 1fbe 88ad d43e 901d 03be
00000220: 4936 4dbf 3ac6 043e 8cd7 56be 8f20 1cbc
00000230: 762e 8b3d 75e9 2abe f0df d0bc 35bc 05bf
00000240: 24f7 31be abec 40be bfef b8bd d01f 6a3e
00000250: e8a5 f83e 62c5 923d 6def b43f 1223 edbd
00000260: 0598 21bf 5d14 0fbe a86f ffbd 6747 873e
00000270: 83b2 27be 8dbe d9bc 4a28 0bbf f42b c7be
00000280: 1bf4 0cbd f07e a1be 230f 653e 9837 36bd
00000290: f5c9 69bf 772d f03c a750 0fbe 0b58 86bd
000002a0: 58a3 bbbe 38b0 bcbe e534 633e 8ff9 2ebf
000002b0: bcdf 4fbe d172 453d e58b aa3e 5d84 4ebf
000002c0: 8cb8 cf3e 0a8f c1bb f271 f5be af49 b03e
000002d0: 2841 5dbd dbda 983e bb04 e1be 9347 f7be
000002e0: 3507 96be 137f ef3b ded8 c4bf 428c aabc
000002f0: 27fd 6abf 04c4 18bd 6aa8 f5be 65ed aebe
00000300: 3b5f c6bd df32 1a3e 91ce b93e fd23 55bf
00000310: b6f1 1abd de96 5b3e 8b92 9dbe ea27 a33e
00000320: 026f 0dbf a7c2 7bbf 5bd5 0cbf c067 f6bd
00000330: b951 acbe e117 e33e adfe a73d 3fc4 bdbe
00000340: 44d9 91be 9422 cb3e 3fbe 473f bfab e03c
00000350: 09b8 4abf 24be 483e 5e53 9abe 63e6 bd3e
00000360: 7b33 903e 8a8c 65be 21fa 3a3f 568d 70bd
00000370: 4813 113e b53f 52bc b56f bcbd 02e0 b8bf
00000380: 9535 8a3e a484 0e3e 1260 a5bd 7a8e 0cbe
00000390: 7f18 76bf 4373 a13e 9ffa 963b dd2a b53e
000003a0: 95b1 14bf 2cd9 ca3e 063d cf3e 3899 d13e
000003b0: f469 8fbe b0e7 8dbe 480d b8bb 007c 59be
000003c0: a99a 5ebe 8482 01c0 452d ed3e d88e 3a3f
000003d0: 971f 2b3d 5d76 4ebf 6c56 343e 979b 1cbe
000003e0: 7479 28be 4971 3c3e 5a03 673c 6f0b 6cbf
000003f0: 349f b1bf a41c 653d 7c38 34bf b89a 86bc

gru.weight_hh_l0_reverse f4 [384, 128]
0.12282786 0.32787377 0.15494648 -0.14478111 0.0630587 0.394712 0.08857487 -0.7364968
-0.39484683 -0.530333 -0.12185932 -0.26224226 0.20748831 0.24941574 -0.13241792 0.32184482
0.10397854 0.23587857 0.28655493 -0.23281626 0.24192885 0.19958743 -0.13464518 0.16661276
-0.29979354 -0.20023277 -0.2809909 -0.1811888 0.20960666 0.47841027 -0.18515146 -0.09175327
-0.45398054 -0.37068462 0.38233373 -0.3777754 -0.5064422 -0.60859525 0.06368946 -0.5225474
-0.041452073 0.12148304 -0.35286266 -0.06676839 -0.29648373 0.3265225 -0.6779318 0.1547619
0.067395635 -0.41228494 -0.0021941774 0.528506 0.21651502 0.266839 0.30615667 0.13517238
0.0109748505 0.13674614 0.31266138 -0.07609848 -0.22208399 -0.39104426 0.13422234 0.1470033
-0.053656872 -0.08502798 0.08670194 0.120174795 -0.08279312 -0.20555067 0.057264324 -0.35054085
0.54306227 0.25271076 -0.36845303 -0.35562873 0.40725645 0.12475804 0.40372005 -0.3849529
-0.63354105 -0.30021325 -0.34723163 -0.21257704 -0.3580187 0.29031405 -0.085003056 0.1567687
-0.54828376 0.09928377 0.19852972 0.118939266 0.04851087 0.27943006 -0.13433611 0.13233656
0.2322611 -0.03904474 0.11271589 0.3838272 -0.108727366 0.121323705 0.060100295 -0.030586632
-0.07844366 0.058215532 -0.24405774 0.009329724 0.4293187 0.44920117 -0.38307709 -0.013604531
0.12744027 0.023666814 0.078663334 0.06089022 -0.1002918 0.094588876 -0.29633072 0.30399573
-0.19046493 -0.24196014 -0.17072156 -0.3586831 -0.054878637 0.08666044 -0.18664 -0.4242746
-0.23641305 -0.6954485 0.8607091 -0.5206241 0.43741634 0.47207886 -0.13678187 -0.43322372
-0.053994283 -0.6051254 -0.19965385 -0.34118783 -0.7404011 -0.14307882 -0.64308673 -0.30672985
0.1709882 0.94440734 0.26493558 -0.23121203 -0.071204446 0.11875114 -0.6056993 -0.12656026
-0.8249064 -0.23916765 -0.6029019 0.039672963 -0.08189605 0.55433214 -0.88804936 -0.2849821
-0.7123794 -0.40082058 -0.24432793 0.1752018 -0.5621862 0.27674994 0.45611593 0.278237
0.2437839 0.15072738 -0.68696153 0.24095923 0.39230573 -0.07105189 -0.49778685 0.3871482
-0.18530677 -0.5479946 -0.27263516 -0.08908889 -0.6700786 0.6040003 -0.6242088 -0.39767691
0.08710112 0.0074989297 0.4651998 -0.7387241 0.42953894 0.0507796 -0.4026314 0.40360737
-0.43776566 0.03267421 0.09455106 -0.3433868 0.54436743 -0.02464504 0.77360046 -0.4745413
0.5397743 -0.07566014 0.022767672 -0.20743789 -0.42779213 0.3524721 -0.18449531 -0.39308658
-0.2699489 0.67958754 -0.8817837 -0.36164334 0.08649707 0.28698024 0.89963317 -0.8002634
-0.5231725 -0.10307506 0.09051004 -0.116345845 0.3128038 0.64518446 -0.022073211 0.6425539
0.30400023 -0.038653262 -0.17129801 0.30445933 0.32588127 0.33764997 -0.23925401 0.20372261
-0.27956596 -0.62079436 -0.97308856 0.12231949 0.17456569 0.44157484 -0.43136594 -0.5219347
-0.46710005 0.26891488 -0.402925 0.17648222 0.18612754 0.09680289 -0.13156724 0.48538265
0.8216761 -0.37218446 0.10681365 -0.21148048 -0.60794044 -0.5862088 -0.38514638 -0.32332593
00000000: 2c8d fb3d 12df a73e 4aaa 1e3e 8041 14be
00000010: eb24 813d b117 ca3e be66 b53d 0e8b 3cbf
00000020: 5d29 cabe e7c3 07bf 6191 f9bd 9e44 86be
00000030: d177 543e d766 7f3e 9098 07be d8c8 a43e
00000040: b3f2 d43d 278a 713e 54b7 923e 6367 6ebe
00000050: 32bc 773e a660 4c3e 6de0 09be 899c 2a3e
00000060: 8a7e 99be d209 4dbe 0ade 8fbe 8f89 39be
00000070: 21a3 563e 31f2 f43e 5898 3dbe 23e9 bbbd
00000080: 2370 e8be 60ca bdbe 3fc1 c33e c76b c1be
00000090: 32a6 01bf e6cc 1bbf 9f6f 823d abc5 05bf
000000a0: a6c9 29bd 1acc f83d 6aaa b4be debd 88bd
000000b0: b7cc 97be f52d a73e f08c 2dbf e779 1e3e
000000c0: b906 8a3d 0317 d3be 30cc 0fbb 2b4c 073f
000000d0: 1db6 5d3e 1f9f 883e 91c0 9c3e a16a 0a3e
000000e0: dccf 333c 2e07 0c3e 2715 a03e 85d9 9bbd
000000f0: fc69 63be f436 c8be 9571 093e 0888 163e
00000100: 4fc7 5bbd 2623 aebd c990 b13d 341e f63d
00000110: 708f a9bd e07b 52be ff8d 6a3d 177a b3be
00000120: 2106 0b3f 4e63 813e e0a5 bcbe f814 b6be
00000130: eb83 d03e 2581 ff3d 65b4 ce3e 8c18 c5be
00000140: bf2f 22bf 8db5 99be 58c8 b1be ccad 59be
00000150: 3a4e b7be 0ba4 943e 1516 aebd f987 203e
00000160: 535c 0cbf 4a55 cb3d 604b 4b3e 6e96 f33d
00000170: 56b3 463d 7511 8f3e 688f 09be 3c83 073e
00000180: dbd5 6d3e 61ed 1fbd 97d7 e63d 0085 c43e
00000190: 74ac debd 9078 f83d ba2b 763d d190 fabc
000001a0: 12a7 a0bd 6973 6e3d 46ea 79be b3db 183c
000001b0: a9cf db3e b2fd e53e ae22 c4be 8ae5 5ebc
000001c0: b47f 023e e8e0 c13c 3e1a a13d 0668 793d
000001d0: ca65 cdbd d0b7 c13d a9b8 97be 54a5 9b3e
000001e0: 3d09 43be 66c4 77be a2d1 2ebe 50a5 b7be
000001f0: 6cc8 60bd 077b b13d 8e1e 3fbe 853a d9be
00000200: 4316 72be ea08 32bf 6e57 5c3f 9f47 05bf
00000210: 09f5 df3e 52b4 f13e 8c10 0cbe 80cf ddbe
00000220: 1c29 5dbd 80e9 1abf 0f72 4cbe 2cb0 aebe
00000230: ed8a 3dbf 4183 12be 55a1 24bf b20b 9dbe
00000240: 8817 2f3e aec4 713f a3a5 873e d9c2 6cbe
00000250: a3d3 91bd cc33 f33d 1c0f 1bbf 0399 01be
00000260: 112d 53bf 5de8 74be c757 1abf 1e80 223d
00000270: 1eb9 a7bd b6e8 0d3f 3457 63bf 2ce9 91be
00000280: 7f5e 36bf 5b38 cdbe 1a31 7abe 1a68 333e
00000290: 6feb 0fbf 2bb2 8d3e 0788 e93e 1475 8e3e
000002a0: 7da2 793e 4758 1a3e b6dc 2fbf 04be 763e
000002b0: 4cdc c83e a783 91bd ebdd febe 4a38 c63e
000002c0: 0fc1 3dbe 6049 0cbf d696 8bbe 3c74 b6bd
000002d0: 458a 2bbf c39f 1a3f 26cc 1fbf 4f9c cbbe
000002e0: 1262 b23d 95b9 f53b ab2e ee3e 061d 3dbf
000002f0: 87ec db3e 45fe 4f3d b425 cebe a0a5 ce3e
00000300: d222 e0be 64d5 053d fca3 c13d 65d0 afbe
00000310: aa5b 0b3f 65e4 c9bc ae0a 463f 14f7 f2be
00000320: a62e 0a3f b4f3 9abd 4583 ba3c 996a 54be
00000330: 9207 dbbe 3977 b43e 57ec 3cbe a542 c9be
00000340: be36 8abe 73f9 2d3f 94bc 61bf 5129 b9be
00000350: 6025 b13d 13ef 923e 5c4e 663f 10de 4cbf
00000360: a2ee 05bf 0419 d3bd 545d b93d bb46 eebd
00000370: d227 a03e cf2a 253f e1d2 b4bc 6a7e 243f
00000380: eba5 9b3e e252 1ebd bf68 2fbe 18e2 9b3e
00000390: e9d9 a63e 75e0 ac3e 01ff 74be a99c 503e
000003a0: 4523 8fbe 61ec 1ebf 551c 79bf a482 fa3d
000003b0: 59c1 323e 1916 e23e ffdb dcbe 839d 05bf
000003c0: bd27 efbe 36af 893e 304c cebe c1b7 343e
000003d0: 3898 3e3e 9840 c63d 90b9 06be 1384 f83e
000003e0: 5d59 523f f68e bebe 1dc1 da3d 578e 58be
000003f0: fca1 1bbf c811 16bf e831 c5be fa8a a5be

gru.bias_ih_l0_reverse f4 [384]
-0.13992442 0.05812028 -0.30945998 -0.16799335 -0.124339074 -0.34080374 -0.29130137 -0.08126076
-0.25727433 -0.32692245 -0.28981176 -0.2645099 -0.16579403 -0.18104663 -0.17651942 -0.25879896
-0.26175156 -0.12259541 -0.26414132 -0.2628165 -0.3357482 -0.24822253 -0.12565401 -0.22702807
-0.17955445 0.00016797378 -0.31411788 -0.25198916 -0.36148173 -0.090240695 -0.32897723 -0.4333946
-0.18734647 -0.18827079 -0.057417806 -0.3938296 -0.1681239 -0.29916772 -0.42911807 0.09028421
-0.3273262 -0.17425102 -0.18457088 -0.20523892 -0.25508425 -0.118897155 -0.06239731 -0.29786766
-0.16089842 -0.42401814 -0.14634253 -0.14296527 -0.07773798 -0.22542045 -0.2544756 -0.22962159
0.03435401 -0.21596482 -0.4541293 -0.053287033 -0.22482166 -0.2067067 -0.29352447 -0.15836515
-0.15777451 -0.16992491 -0.2314425 -0.22892186 -0.09400886 -0.20622584 -0.19260488 -0.27160296
0.025017768 -0.39009172 -0.13100359 -0.31015217 -0.32143506 -0.25628486 -0.15406504 -0.19529685
-0.2897104 -0.25664446 -0.23903301 -0.29833132 -0.12629873 -0.14375786 -0.2272046 -0.22563945
-0.29184672 -0.19777648 -0.20090652 -0.04399519 -0.21272741 -0.17101908 -0.06507974 -0.124816686
-0.021335892 -0.079179764 0.009406635 -0.16270337 -0.22016437 -0.48866358 -0.1842185 -0.25998014
-0.45610753 -0.21101187 -0.32950154 -0.15971379 -0.36316174 -0.26756668 -0.08242872 -0.27063423
-0.25598747 -0.31398433 -0.29395404 -0.38729417 -0.14634272 -0.35647383 -0.26487485 -0.30058482
-0.3647113 -0.30767336 -0.2837696 -0.091115035 -0.28504178 -0.13524355 -0.5199598 -0.2057594
0.73368055 1.1796002 -0.5626673 1.3759826 0.2576899 -0.63401294 0.39945123 0.07476126
0.6037421 -0.46848854 1.150833 0.38030374 1.4552977 -0.46785608 1.1434357 -0.39921394
-0.18029872 -0.49828365 1.2130929 0.5982303 0.32373282 -0.5427788 -0.6967032 -0.28733578
0.08887777 1.37874 0.34457824 1.2631717 0.66059214 0.23811984 0.7241053 0.5335008
-0.4029139 0.58067244 1.0071633 -0.04339255 -0.17838386 0.28315917 0.64257693 0.5917332
-0.09840464 -0.43799144 0.44135904 1.0478021 0.60089755 0.7685508 0.31911272 0.642158
0.9712727 -0.62801605 0.028821463 -0.5510424 0.8812313 0.3981327 1.1432256 0.6082232
-0.4877327 -0.36705604 0.5408441 0.4094651 1.3519915 -0.29158467 0.88863367 -0.52779686
0.99513495 1.0148993 0.23585941 -0.4508293 1.4108423 0.63449264 0.8714398 0.9228392
0.6142736 1.1464874 -0.29217806 0.5979062 1.1030381 0.544529 1.134708 0.0347241
-0.36266205 0.9228243 -0.14930561 0.5030996 1.55739 -0.49564055 0.77653104 1.1858368
-0.3246271 -0.4938015 0.62058085 1.1644615 0.43966395 -0.6048418 -0.8034269 0.08786915
0.33967274 0.6537051 1.405832 0.39264587 1.4103605 0.45982373 1.0199901 0.5500255
0.4370885 -0.57937706 0.6263075 -0.35832244 0.7455713 -0.5273064 0.71677816 1.1269101
0.843561 0.7176842 0.46810898 0.63349825 0.9384045 0.7082736 0.5583948 -0.21106589
0.89267147 0.71380424 -0.19142056 0.5217625 0.60492045 -0.5945929 0.58512294 0.5601497
00000000: 5948 0fbe 880f 6e3d 8a71 9ebe 7306 2cbe
00000010: 7ca5 febd d47d aebe 7425 95be 0b6c a6bd
00000020: 76b9 83be 6162 a7be 3562 94be d76d 87be
00000030: e9c5 29be 4a64 39be 82c1 34be 4c81 84be
00000040: 4d04 86be 4d13 fbbd 883d 87be e28f 86be
00000050: 30e7 abbe 0c2e 7ebe 72ab 00be 0c7a 68be
00000060: 1fdd 37be 1e22 3039 0fd4 a0be b904 81be
00000070: 2214 b9be 1dd0 b8bd b46f a8be e6e5 ddbe
00000080: c1d7 3fbe 0fca 40be ef2e 6bbd 09a4 c9be
00000090: ac28 2cbe 832c 99be 5db5 dbbe eee6 b83d
000000a0: 4d97 a7be dc6e 32be 2600 3dbe 272a 52be
000000b0: 679a 82be 5a80 f3bd 5294 7fbd 1c82 98be
000000c0: 8ec2 24be e818 d9be d1da 15be 7d65 12be
000000d0: 1735 9fbd 9ed4 66be a04a 82be ec21 6bbe
000000e0: cab6 0c3d e225 5dbe a383 e8be 8143 5abd
000000f0: a637 66be ecaa 53be d748 96be 792a 22be
00000100: a48f 21be cc00 2ebe 43ff 6cbe 7e6a 6abe
00000110: b887 c0bd de2c 53be 373a 45be 8b0f 8bbe
00000120: 10f2 cc3c 1aba c7be ce25 06be 44cc 9ebe
00000130: 2393 a4be c537 83be 3ac3 1dbe e6fb 47be
00000140: ec54 94be e766 83be 12c5 74be e2be 98be
00000150: 7454 01be 4335 13be 53a8 68be 070e 67be
00000160: ef6c 95be eb85 4abe 70ba 4dbe 4d34 34bd
00000170: 37d5 59be a01f 2fbe 8748 85bd e49f ffbd
00000180: 9cc8 aebc 0029 a2bd 491e 1a3c b69b 26be
00000190: c572 61be 1d32 fabe c6a3 3cbe 1e1c 85be
000001a0: ed86 e9be 7f13 58be 6db4 a8be 038c 23be
000001b0: 56f0 b9be 80fe 88be 64d0 a8bd 9290 8abe
000001c0: ca10 83be 8ec2 a0be 2581 96be 6c4b c6be
000001d0: deda 15be bd83 b6be ad9d 87be 41e6 99be
000001e0: 71bb babe 5d87 9dbe 404a 91be 859a babd
000001f0: fff0 91be 497d 0abe 161c 05bf 98b2 52be
00000200: 7dd2 3b3f 24fd 963f f70a 10bf 3320 b03f
00000210: eeef 833e ac4e 22bf df84 cc3e 6e1c 993d
00000220: d88e 1a3f bbdd efbe 7f4e 933f 2cb7 c23e
00000230: 3247 ba3f d58a efbe 1a5c 923f c565 ccbe
00000240: 3aa0 38be 091f ffbe a146 9b3f 9f25 193f
00000250: 4fc0 a53e 8df3 0abf 245b 32bf ad1d 93be
00000260: 8c05 b63d 8d7a b03f 8f6c b03e 9caf a13f
00000270: 911c 293f b0d5 733e f75e 393f 8293 083f
00000280: bb4a cebe f3a6 143f baea 803f 63bc 31bd
00000290: 42aa 36be 3dfa 903e ec7f 243f d47b 173f
000002a0: 5f88 c9bd 6a40 e0be d0f9 e13e 611e 863f
000002b0: 6cd4 193f bfbf 443f be62 a33e 7764 243f
000002c0: 54a5 783f a9c5 20bf fd1a ec3c 1d11 0dbf
000002d0: 6098 613f 0dd8 cb3e 3755 923f 84b4 1b3f
000002e0: 1ab8 f9be c5ee bbbe c274 0a3f 69a5 d13e
000002f0: 0f0e ad3f 964a 95be 7f7d 633f b21d 07bf
00000300: 2ac1 7e3f 38e8 813f 2185 713e 19d3 e6be
00000310: 7b96 b43f 1c6e 223f ae16 5f3f 313f 6c3f
00000320: 0941 1d3f 19c0 923f 5d98 95be 6110 193f
00000330: 5a30 8d3f 4166 0b3f 1d3e 913f dc3a 0e3d
00000340: d7ae b9be 373e 6c3f 92e3 18be 23cb 003f
00000350: 8e58 c73f 99c4 fdbe bdca 463f 80c9 973f
00000360: 8635 a6be 8dd3 fcbe 63de 1e3f 130d 953f
00000370: a21b e13e ead6 1abf 63ad 4dbf bef4 b33d
00000380: 96e9 ad3e 3859 273f 4ef2 b33f e108 c93e
00000390: b186 b43f 046e eb3e 098f 823f 79ce 0c3f
000003a0: 10ca df3e 0e52 14bf b055 203f 0a76 b7be
000003b0: c3dd 3e3f 8dfd 06bf c67e 373f 973e 903f
000003c0: 9df3 573f 27ba 373f fbab ef3e f12c 223f
000003d0: 473b 703f 6b51 353f f6f2 0e3f a821 58be
000003e0: 1e86 643f e0bb 363f c003 44be 3a92 053f
000003f0: 11dc 1a3f 3e37 18bf 9eca 153f f965 0f3f

gru.bias_hh_l0_reverse f4 [384]
-0.12436153 -0.045859758 -0.3403066 -0.23825091 -0.117207885 -0.18796802 -0.26521075 -0.1388313
-0.2064175 -0.28883263 -0.2811502 -0.26945555 -0.08415803 -0.26587942 -0.1516161 -0.30587456
-0.1575767 -0.07659649 -0.26476797 -0.16967985 -0.3976998 -0.23552519 -0.087143615 -0.08726395
-0.23288888 0.038158946 -0.26784125 -0.29068732 -0.35177442 -0.13036498 -0.1910595 -0.3347814
-0.24132782 -0.25196788 -0.16451903 -0.4929676 -0.2617661 -0.2826893 -0.50696486 -0.011771375
-0.230675 -0.22709553 -0.27158344 -0.33687493 -0.21958143 -0.21044107 -0.066390514 -0.18383159
-0.061557554 -0.5093411 -0.23498562 -0.0142481 -0.20654607 -0.17904721 -0.15155114 -0.30800825
-0.07493297 -0.24908157 -0.34448126 -0.11451622 -0.24544159 -0.27685097 -0.43143812 -0.06920958
-0.2192824 -0.18260764 -0.2088929 -0.17173494 -0.059919693 -0.23520955 -0.19638932 -0.3335623
-0.070600234 -0.38631776 -0.15301746 -0.24395172 -0.3586614 -0.26640046 -0.18400879 -0.094139546
-0.2941726 -0.2575298 -0.29351386 -0.2621121 -0.13211364 -0.12028793 -0.33158484 -0.21382938
-0.2616543 -0.120689325 -0.2855989 -0.08189543 -0.28690264 -0.07861547 -0.09240172 -0.11451171
-0.15429717 -0.1415896 -0.04941567 -0.12222207 -0.18767129 -0.4550642 -0.07699648 -0.240907
-0.43631336 -0.18526375 -0.3490171 -0.102187574 -0.38071862 -0.19112556 0.058719736 -0.29632252
-0.21941349 -0.37965864 -0.2908845 -0.44175476 -0.13715781 -0.36591485 -0.24711241 -0.2779953
-0.36420932 -0.3902455 -0.2717206 -0.09057839 -0.41391838 -0.08021154 -0.46763295 -0.1621001
0.75265837 1.137499 -0.5399457 1.3348105 0.29896715 -0.7619353 0.4559727 -0.021369083
0.5639153 -0.35729703 1.1071864 0.35604522 1.4941471 -0.5656844 1.0777018 -0.40113178
-0.23329055 -0.44698822 1.1594629 0.51785165 0.31909138 -0.5356801 -0.6395764 -0.2894208
-0.024866225 1.3919002 0.36084333 1.237234 0.6336453 0.26262957 0.6546819 0.54467165
-0.41701993 0.6114778 0.9284909 -0.054053757 -0.07220987 0.3400572 0.6422145 0.54182124
-0.20978567 -0.45097685 0.45805693 1.0268195 0.6815739 0.8687038 0.36196563 0.5627284
0.90713817 -0.59647304 0.14252122 -0.578175 0.803948 0.4553549 1.0824052 0.71482396
-0.43293175 -0.35318384 0.5735779 0.45023462 1.3517908 -0.3327947 0.90162975 -0.49832278
0.95230657 1.0546983 0.37525085 -0.43013644 1.4798537 0.5070657 0.873991 0.83010995
0.5872829 1.1156179 -0.20810744 0.5290316 1.2263454 0.53998464 1.0734671 0.13788319
-0.2824428 0.9019761 -0.109297924 0.5014503 1.5145932 -0.46001276 0.75112045 1.2393839
-0.32567382 -0.5503435 0.65278655 1.2702105 0.4367102 -0.52864444 -0.836092 0.13366061
0.4236105 0.7159769 1.4739385 0.45898065 1.3142368 0.5531615 0.89834875 0.51571035
0.48692504 -0.6017905 0.6273307 -0.43667588 0.767913 -0.4931572 0.6857685 1.0610954
0.88654923 0.8348084 0.4631168 0.6383349 0.9328723 0.62878937 0.55036014 -0.2051224
0.8569681 0.699824 -0.0773646 0.39956248 0.56281024 -0.636931 0.67130935 0.5848171
00000000: 42b1 febd 71d7 3bbd ab3c aebe 0cf8 73be
00000010: b00a f0bd b07a 40be b4c9 87be cb29 0ebe
00000020: 1c5f 53be dfe1 93be ebf2 8fbe 14f6 89be
00000030: 0c5b acbd 5921 88be 4041 1bbe 979b 9cbe
00000040: c95b 21be 9fde 9cbd ab8f 87be 8ec0 2dbe
00000050: 4f9f cbbe 842d 71be 5a78 b2bd 71b7 b2bd
00000060: 6c7a 6ebe 8e4c 1c3d 7d22 89be f8d4 94be
00000070: c71b b4be 667e 05be 1aa5 43be 7868 abbe
00000080: a41e 77be ef01 81be ad77 28be 4066 fcbe
00000090: 3506 86be a7bc 90be 73c8 01bf badc 40bc
000000a0: 1136 6cbe bb8b 68be fc0c 8bbe df7a acbe
000000b0: f4d9 60be dd7d 57be c0f7 87bd 593e 3cbe
000000c0: c623 7cbd 2e64 02bf 12a0 70be dd70 69bc
000000d0: d080 53be 2758 37be 3930 1bbe 42b3 9dbe
000000e0: 7576 99bd 3d0f 7fbe d95f b0be 7b87 eabd
000000f0: 0a55 7bbe 69bf 8dbe 75e5 dcbe c1bd 8dbd
00000100: 918b 60be 7ffd 3abe 05e8 55be 49db 2fbe
00000110: 5a6e 75bd c6da 70be 481a 49be aec8 aabe
00000120: db96 90bd 71cb c5be 9cb0 1cbe 7bce 79be
00000130: 78a2 b7be a465 88be cd6c 3cbe 3ccc c0bd
00000140: cb9d 96be f2da 83be 7347 96be 8f33 86be
00000150: cc48 07be 8559 f6bd 7dc5 a9be 17f6 5abe
00000160: 8df7 85be f72b f7bd 053a 92be cbb8 a7bd
00000170: e7e4 92be 2601 a1bd 1d3d bdbd 1e85 eabd
00000180: 1400 1ebe ddfc 10be 1668 4abd 914f fabd
00000190: e72c 40be 2dfe e8be 55b0 9dbd 53b0 76be
000001a0: 7764 dfbe c8b5 3dbe 5fb2 b2be b847 d1bd
000001b0: 8ded c2be 6bb6 43be 1b84 703d 96b7 97be
000001c0: eead 60be 9e62 c2be d0ee 94be ae2d e2be
000001d0: 1973 0cbe 3159 bbbe 090b 7dbe 6655 8ebe
000001e0: a579 babe 42ce c7be f61e 8bbe 2a81 b9bd
000001f0: 1ced d3be f345 a4bd 966d efbe 92fd 25be
00000200: 38ae 403f 9199 913f e239 0abf 12db aa3f
00000210: 3912 993e 310e 43bf 4175 e93e 370e afbc
00000220: c15c 103f a3ef b6be 49b8 8d3f 8f4b b63e
00000230: 3640 bf3f b1d0 10bf 22f2 893f 2561 cdbe
00000240: b8e3 6ebe a4db e4be 4869 943f ed91 043f
00000250: f25f a33e 5522 09bf 47bb 23bf f72e 94be
00000260: 41b4 cbbc c929 b23f 75c0 b83e af5d 9e3f
00000270: 9436 223f 6277 863e 3c99 273f 9a6f 0b3f
00000280: a383 d5be cf89 1c3f 94b1 6d3f 7967 5dbd
00000290: c5e2 93bd fa1b ae3e 2b68 243f ccb4 0a3f
000002a0: 0ed2 56be 70e6 e6be 7086 ea3e d26e 833f
000002b0: a17b 2e3f 5f63 5e3f 8f53 b93e f80e 103f
000002c0: 353a 683f 75b2 18bf 15f1 113e 4703 14bf
000002d0: 89cf 4d3f 4724 e93e 418c 8a3f b4fe 363f
000002e0: 3ba9 ddbe 83d4 b4be 00d6 123f 2785 e63e
000002f0: 7b07 ad3f 1164 aabe 35d1 663f 2a24 ffbe
00000300: 5dca 733f 5b00 873f e120 c03e d83a dcbe
00000310: d96b bd3f 0fcf 013f e0bd 5f3f 1682 543f
00000320: 2c58 163f 91cc 8e3f 1e1a 55be 9d6e 073f
00000330: e3f8 9c3f 6f3c 0a3f 5f67 893f 4031 0d3e
00000340: 589c 90be e8e7 663f 97d7 dfbd 0c5f 003f
00000350: 31de c13f cb86 ebbe 6e49 403f 22a4 9e3f
00000360: b8be a6be 50e3 0cbf 051d 273f 4296 a23f
00000370: 7b98 df3e 3e55 07bf 200a 56bf 54de 083e
00000380: 7ae3 d83e 434a 373f 04aa bc3f 83ff ea3e
00000390: e938 a83f fe9b 0d3f 2ffa 653f 9805 043f
000003a0: 3d4e f93e f10e 1abf bf98 203f fb93 dfbe
000003b0: f295 443f 1a7f fcbe 868e 2f3f f9d1 873f
000003c0: e4f4 623f 01b6 553f a51d ed3e ea69 233f
000003d0: b8d0 6e3f 57f8 203f 67e4 0c3f 9b0b 52be
000003e0: 4362 5b3f aa27 333f 5571 9ebd 7493 cc3e
000003f0: 5514 103f e90d 23bf eeda 2b3f 93b6 153f
